ch/CNN model/wineQulityNewDataModel2_1.pkl (torch_old, 682813 bytes, 38 tensors)

layer.0.weight f4 [16, 1, 3, 3]
000000 f5 44 7a 3e 4d 35 7d 3e bc 7f 98 bd 9b ea ea bd
       0.24440368 0.24727364 -0.074462384 -0.11470529
000010 7e c8 d1 bd 6c 94 1d 3e 3e 98 54 bd 5c ff 3b 3e
       -0.10243319 0.1538865 -0.051903002 0.1835913
000020 11 57 d8 be 49 91 40 3e 7f e9 81 3c e0 f3 05 3e
       -0.42253926 0.18805422 0.01585841 0.13081312
000030 de b8 ae 3e d0 4d 9e 3d 68 bb 4d bd b6 46 b7 be
       0.34125417 0.07729685 -0.050227553 -0.35796136
000040 e8 11 e1 3d 0f a4 8d be ec 4b df 3d 1d 5d 8f 3d
       0.109897435 -0.2766423 0.10903153 0.07000182
000050 08 07 18 38 3d 69 c6 be dc c8 ec 3e 23 e6 89 3e
       3.6246172e-05 -0.38752165 0.46246994 0.26933393
000060 13 60 50 3e d2 d5 8c be 5a 23 48 be 9a cc 80 bd
       0.2034915 -0.27506882 -0.19544736 -0.06289025
000070 f4 9e c7 3e 04 53 2c 3d a7 bc b9 3e 95 98 2f 3e
       0.3898846 0.042071357 0.36276743 0.17148049
000080 69 5d 89 be 6e 95 16 be 50 15 66 be e6 7e 48 be
       -0.2682908 -0.1470544 -0.22469068 -0.19579658
000090 9e 69 6d 3d 36 e4 8c bd a7 bc c3 3e 2e fb 23 be
       0.057962053 -0.06879465 0.38229868 -0.16013786
0000a0 de 7c c1 be ce 3f ca bd e4 12 c5 bc 8a 71 b7 3d
       -0.3779058 -0.09875451 -0.02405686 0.08957203
0000b0 89 90 81 3c a2 6e 3b bd ff 76 b0 be 51 92 85 3d
       0.01581599 -0.045759805 -0.34465787 0.06522048
0000c0 19 d2 2b bc 21 d8 b1 be 5f dc 8c 3e 43 42 9a bd
       -0.010487103 -0.34735206 0.2751188 -0.0753217
0000d0 03 6a a9 3e 25 d4 0b 3e c0 27 d3 3c fd 50 3f 3e
       0.33088693 0.13655145 0.02577579 0.18683238
0000e0 1f 81 11 3e 83 00 dd be fb cb 2b 3e 42 c1 89 3d
       0.14209412 -0.43164453 0.16777031 0.06726314
0000f0 8f 9b 53 3e 8a 3b ce bd 1b b3 3a be c4 3f ac 3d
       0.2066481 -0.1006995 -0.18232386 0.084106
000100 4b 4b ca bb 43 28 53 bd ab f3 ba bc c8 64 83 be
       -0.0061735264 -0.05155207 -0.022821268 -0.25662827
000110 f3 b5 aa bd dc 1d 47 bd 2f b6 ff bd 49 d3 97 3e
       -0.08335485 -0.04861246 -0.12485921 0.29653385
000120 4d 22 b1 bd 81 9e 49 be 4d fa a7 38 aa 7d 75 3e
       -0.086491205 -0.1968937 8.009803e-05 0.23973718
000130 ce dd e5 be 4a 26 8c bd e8 92 e7 ba 2e 97 15 3e
       -0.44895786 -0.068432406 -0.0017667683 0.14608452
000140 1c 51 6c 3e b5 e5 b9 bd fb 4c de bd 12 3a 2b be
       0.23077816 -0.09077016 -0.108545266 -0.16721371
000150 7f 3d 4d be 68 2c 2d be 7f 0f 20 3e 06 b1 27 bd
       -0.2004299 -0.16911471 0.15630911 -0.040940307
000160 d4 db df 3e ff 2d 41 3d f3 b0 18 3d 42 30 68 be
       0.43722403 0.047163006 0.037278127 -0.22674659
000170 4e c7 b7 3e 2e 13 7f bd d4 e4 a5 be 3a 97 e8 bd
       0.35894245 -0.06227415 -0.32401145 -0.11356969
000180 3f c8 8f 3e a1 75 85 bd 9d 4e ba bd 29 61 75 3d
       0.28082463 -0.065165766 -0.090970255 0.059907112
000190 18 d5 b2 be 99 12 dd bd c3 c3 5c bc a8 af 72 bc
       -0.34928203 -0.10794563 -0.013474408 -0.0148123875
0001a0 a1 60 24 3e 12 24 d5 bd 1e 06 25 3e ab 18 58 3e
       0.16052486 -0.104072705 0.16115615 0.2110316
0001b0 34 d9 52 3e d7 d8 12 3d fc 0a 45 3d 33 8b ba be
       0.20590669 0.035851326 0.04810618 -0.36434326
0001c0 8c 6e 93 bd 43 cb ac bd 0b 94 08 3d a3 5d a5 be
       -0.071988195 -0.084372066 0.03334431 -0.32298002
0001d0 37 bb a2 3e c9 c1 58 be e7 d1 07 3e 06 b9 e5 3e
       0.3178346 -0.21167673 0.13263665 0.44867724
0001e0 67 ea a3 bd f4 76 cd be dd 46 4f 3e 9e 33 45 be
       -0.08003693 -0.40129817 0.20241876 -0.19257972
0001f0 37 e7 93 3e 05 32 45 3d f6 1d 03 be 2b e8 e3 bd
       0.2888734 0.048143405 -0.12804398 -0.11128267
000200 94 ca ea 3d 5e 54 e3 3d 3a 71 85 bd db a8 b3 3e
       0.1146442 0.11100076 -0.06515737 0.35089764
000210 27 25 8d be 73 65 8c 3e eb 17 51 be c6 be 21 be
       -0.27567407 0.2742115 -0.2041928 -0.1579543
000220 ec ff 84 be cf 5f 36 3d 50 7a e9 3d c4 53 13 3e
       -0.25976503 0.044524964 0.114002824 0.14387423
000230 6e 6a 97 b9 6b 93 b5 be 8e f8 77 3e 69 73 0a 3e
       -0.0002888026 -0.35464033 0.2421591 0.13520588

layer.0.bias f4 [16]
000000 0a 3f a9 3b e5 07 9d bb 23 0a 3d bd 88 85 be 3d
       0.0051649855 -0.004792201 -0.046152245 0.09302813
000010 4c 45 49 3e 2e 1f b1 bd 06 ca bd 3c 8b 76 e1 3d
       0.19655341 -0.08648525 0.023167621 0.110089384
000020 77 7d fd 3d df 95 5f bd 13 65 25 3e 1f b4 c7 bd
       0.12377446 -0.054586288 0.16151838 -0.09751152
000030 83 00 1a 3e 47 3f 35 be 81 02 bd bd 1b c3 c7 3d
       0.15039258 -0.1769992 -0.09228993 0.0975401

layer.3.weight f4 [32, 16, 3, 3]
000000 88 6c 3a 3d f9 66 18 bd e0 96 9b bd 41 c5 42 3e
       0.04551366 -0.037207577 -0.075971365 0.19020559
000010 80 6f b3 3d 6b e8 48 3d 00 98 8c bd 36 b8 7c 3c
       0.08761501 0.049049776 -0.06864929 0.015424779
000020 eb db d6 bc 9f 59 24 3d 8d f0 90 bc fa eb ec 3c
       -0.026227912 0.04012453 -0.017692829 0.028921116
000030 6c 89 99 bd 69 30 21 3e 33 53 22 3d 08 5b 02 bd
       -0.07496914 0.15741123 0.039630126 -0.031825095
000040 f8 53 74 3d 8e c0 12 bd 6e f9 19 3e c8 7f 70 bc
       0.05965039 -0.035828166 0.15036556 -0.014678903
000050 3a de fa bb 80 5d de 3d e4 f2 7e bb 80 9d a5 3d
       -0.007655886 0.108576775 -0.0038902098 0.08086681
000060 23 ee 21 3e 1e 20 14 bd e3 76 2a bd 43 a4 e5 3b
       0.15813498 -0.03616344 -0.041617285 0.007008107
000070 ae 5f 05 bc c2 31 ca b9 a9 18 34 bd 64 bb da bc
       -0.008140488 -0.00038565515 -0.04396883 -0.026700683
000080 2e 44 ed 3c 91 63 57 3d c4 4b 02 3e 1a 54 b2 bd
       0.028963175 0.05258519 0.12724215 -0.08707447
000090 69 c6 28 be 33 32 3a be 3a f8 b3 bc a7 60 e0 bb
       -0.16481937 -0.18183212 -0.02196895 -0.0068474594
0000a0 cc 8c 6e bd 36 70 f3 bb 0f f6 10 be 40 0d 93 bd
       -0.058239743 -0.007429148 -0.14156364 -0.071802616
0000b0 d3 e4 1d 3e 73 df 55 bd 12 2b 45 3d 97 d5 da 3a
       0.15419321 -0.05221505 0.04813678 0.0016695735
0000c0 cd a2 82 3c 2f 51 c6 bc 52 25 a9 bd 25 29 c8 bd
       0.01594677 -0.024208633 -0.082590714 -0.09773473
0000d0 e0 05 2b bc 63 5c 14 3e bc 1d 39 bd 60 80 20 bc
       -0.010438412 0.14488368 -0.045194373 -0.009796232
0000e0 59 ca df 3b 5c b6 13 3e ea 69 df 3d 9b 9d 37 3d
       0.0068295416 0.14425033 0.109088734 0.04482804
0000f0 96 93 c8 3d 19 72 b2 bd 69 85 ce bd 9d 1f 11 be
       0.09793775 -0.08713169 -0.1008404 -0.14172216
000100 95 d0 69 3c d5 92 a8 3c e7 fa 5a be ac 43 1b be
       0.014270921 0.020577827 -0.21384774 -0.15162534
000110 6d 77 0b 3e cb 22 0f be db 25 94 bd a1 a5 29 3e
       0.13619776 -0.13978116 -0.07233783 0.16567089
000120 3b 06 18 be dc 8f ea bc f0 94 9e 3a 09 af a5 bd
       -0.14846127 -0.02863305 0.001209883 -0.08090026
000130 07 c6 f4 bd f8 c5 5a bd f9 8b cd bd c4 9e f9 bb
       -0.11951833 -0.053411454 -0.10036463 -0.0076178033
000140 55 6e aa 3d 09 53 84 3d 51 70 bc bd 04 7c a9 bc
       0.083218254 0.0646115 -0.0920111 -0.020689018
000150 3d 40 0f 3e ee a5 06 be 34 d1 11 be e3 ce ca 3d
       0.13989349 -0.13149235 -0.14239961 0.09902742
000160 4e 9d 23 bd fb 73 b4 3d 4a 6f b1 be 7d c0 f5 bd
       -0.03994494 0.08811184 -0.3465522 -0.11999605
000170 38 8b 41 3c 31 e8 63 bd 07 cf 0b 3c a7 dc 67 3c
       0.0118129775 -0.055641357 0.008533246 0.014151729
000180 76 02 1b bc 13 8f 23 bd 55 e8 10 3e 7f fc 9d 3c
       -0.009461036 -0.039931368 0.14151128 0.019285439
000190 2f 84 40 3e 58 23 cd 3d 8d 34 b6 bd b2 ae 22 be
       0.18800424 0.10016507 -0.08896742 -0.15886953
0001a0 23 11 51 bb 2c 0e a7 bd 3f c2 20 bd 35 a3 b5 3d
       -0.0031901083 -0.08157 -0.039247748 0.0886902
0001b0 61 44 80 bd b5 48 5d be a0 a4 85 bd 4e 33 f6 bc
       -0.06263042 -0.21609767 -0.0652554 -0.03005376
0001c0 e8 24 f6 bd ec 68 cb 3d 07 2c 4c be 0d c4 43 bd
       -0.12018758 0.09932122 -0.1993867 -0.04779439
0001d0 ab 76 84 3d 62 eb 7c 3d 6b 9a c1 bc 07 08 1d 3d
       0.064679466 0.061747916 -0.023633203 0.038337734
0001e0 95 2a c5 3d b0 6a f7 3a c4 5d 1e 3b 87 1f 4a bd
       0.096272625 0.00188764 0.0024164775 -0.049346473
0001f0 7b 96 33 be 1c 0f f8 3d 25 24 d7 3d 2c b6 5a bb
       -0.17537872 0.12112257 0.10504941 -0.0033372743
000200 fd 3c b0 bc ca 3d b6 3d 07 62 d3 bc 8a aa 39 bd
       -0.021513456 0.08898504 -0.025803579 -0.045328654
000210 5b af e8 3c a9 39 f4 bd bc fd c1 3c 69 38 03 3e
       0.028403929 -0.1192506 0.02368056 0.12814488
000220 02 13 c2 bd c1 0e 26 3d 5e 7b 5b 3b 8d 6d 51 be
       -0.09476282 0.040541414 0.003349028 -0.20451947
000230 d0 bd 5b be 9b 61 9f 3d 23 bb 8d bd 28 e6 76 bd
       -0.21459126 0.07782289 -0.06920459 -0.060278088
000240 39 f3 03 3e 83 57 de bd f5 63 02 3e 36 c8 9b 3c
       0.12885751 -0.10856535 0.12733443 0.019016366
000250 82 c2 ed bd 4b 15 aa be b8 ee 22 3d 0f 36 40 3c
       -0.11609365 -0.3321937 0.03977844 0.011731639
000260 7a ea b9 bd 9b 81 fb 3d 82 fb b0 bd 1f a9 13 bd
       -0.09077926 0.1228058 -0.08641721 -0.03604996
000270 bf f6 ac bd 0e 7e 2d be d9 e6 61 be 7c c6 6e 3e
       -0.084455006 -0.16942617 -0.22060718 0.23317903
000280 a4 15 23 3d ed ac a4 bd 57 4f df bd e6 9a ae bc
       0.03981556 -0.080407955 -0.10903805 -0.021314096
000290 aa 31 a5 3c 9e ff f3 bd a1 95 66 bb fe 4b 65 bd
       0.020165283 -0.119139895 -0.00351844 -0.055980675
0002a0 a4 0f 76 bd 1f 3e a6 3d ee eb 47 3e 68 e9 b1 3d
       -0.06007351 0.081173174 0.19523594 0.08687097
0002b0 f4 f5 75 bd 36 16 bf 3d 61 70 e4 bd 29 7c e2 bd
       -0.060049012 0.09330408 -0.11154247 -0.11058838
0002c0 5c b0 83 be 36 bf 60 3e 1d 4a 00 be 67 d3 bc bd
       -0.2572049 0.21947941 -0.12528272 -0.09220009
0002d0 79 fe 71 bc 69 74 41 3e 15 38 92 3d 24 01 d1 3b
       -0.014770144 0.18892063 0.07139603 0.00637831
0002e0 a6 0b ad bd c3 2a d9 3d ee 3d e7 bd 1c b2 c4 ba
       -0.084494874 0.10603859 -0.11291109 -0.0015006694
0002f0 3c 73 18 be dc 70 cd bb 8b ed ff b9 f3 a7 5a bd
       -0.14887708 -0.0062695574 -0.00048814373 -0.053382825
000300 e3 38 b8 3c 4f 82 46 3d 73 40 4d 3e a0 4f f7 bd
       0.022488063 0.048464116 0.20044117 -0.12075734
000310 40 59 e0 3d d2 67 2a bd e9 ec e2 bd 32 c2 d4 bd
       0.10954523 -0.041602917 -0.11080343 -0.10388602
000320 9a 41 c6 3c c7 ee 16 bd 05 28 04 be 18 98 0b be
       0.024201203 -0.03684881 -0.12905891 -0.13632238
000330 70 07 f2 bd 81 af 85 bd c2 ee 80 3d ee 2f 13 3d
       -0.11817825 -0.06527615 0.062955394 0.03593438
000340 7f c7 2c 3d c8 d1 c5 3d 59 49 02 bc 1c 62 34 3d
       0.04218244 0.09659153 -0.007952058 0.044038877
000350 0f d4 06 3e 2d 7c 1b bd 54 7b 97 bd 58 a8 26 be
       0.13166831 -0.03796022 -0.0739657 -0.16275156
000360 51 fc 4f 3e 44 4d 30 3c 86 be 30 3d bb 5c 07 3d
       0.20311095 0.010760609 0.043150447 0.03304742
000370 bb 8f 05 3e 75 70 2c 3e ff 71 9c bd 74 a7 5d bb
       0.1304311 0.16839774 -0.076389305 -0.0033821734
000380 e4 14 21 be 5d c8 99 3d 80 8e a4 bc b2 93 c6 3d
       -0.15730625 0.075089194 -0.02008748 0.096961394
000390 a1 8a a3 bc 0a 02 f2 3d 26 52 96 3e 03 61 2e be
       -0.019963564 0.11816795 0.2935955 -0.17029195
0003a0 6e 90 2a bc a2 6b 4b 3d a4 64 8b 3d 7b de 29 3e
       -0.010410411 0.049663194 0.06806305 0.16588776
0003b0 c9 9c 83 3d 1f f6 3b bc 79 c0 5a 3c 3f cd 83 3d
       0.06426389 -0.011472254 0.013351553 0.06435632
0003c0 6e ed ce bd 11 c6 26 be 96 8b 55 be 07 ca ce bd
       -0.1010388 -0.16286494 -0.20854029 -0.100971274
0003d0 cb 2c 0e be e1 db 7c bd f2 01 25 be e8 15 f7 3d
       -0.13884275 -0.06173313 -0.16114023 0.12064725
0003e0 01 a7 8b 3e 9b fe 93 bc 1d 77 23 3d b7 d2 04 3d
       0.2727585 -0.018065741 0.039908517 0.032427516
0003f0 94 9e fa bd d0 27 07 3d e5 ff b6 3d 7d 4c af bd
       -0.122372776 0.032996953 0.08935527 -0.08559511

layer.3.bias f4 [32]
000000 22 f2 f8 bd 52 59 a2 bd c1 14 56 3c 4b 50 b1 bd
       -0.12155558 -0.07927193 0.013066472 -0.08657893
000010 71 ac e1 bd 18 ad b8 bd 4a 6f a0 bd ae 4f 66 be
       -0.11019219 -0.0901739 -0.07833727 -0.22491333
000020 b2 c3 0d be e9 cc 9f bc 78 d7 1a be 13 fd ad bd
       -0.13844183 -0.019506888 -0.15121257 -0.08495536
000030 a5 bc db bc 21 37 af 3c 60 26 d8 bd 16 fe c8 bc
       -0.026823351 0.021388592 -0.105541945 -0.02453522
000040 8e 0b 73 be 34 7d 2e bd b6 8a f3 bd 1a 67 e6 bd
       -0.23734877 -0.04259987 -0.118916914 -0.11250134
000050 fb 1a 52 bd 13 2e 1d be 8d a2 f0 bd 13 3a 0a be
       -0.05129526 -0.15349607 -0.11749754 -0.13498716
000060 56 00 0f be e7 5a 07 be 1c d6 c4 bd da 38 5b be
       -0.13964972 -0.1321827 -0.096111506 -0.21408406
000070 51 b2 15 be b2 da 65 be 4d 61 99 bd 04 ed b6 bd
       -0.14618804 -0.22446707 -0.07489262 -0.08931926

layer.7.weight f4 [64, 32, 3, 3]
000000 ed 13 e6 bd 1e 42 bc 3d 11 b1 ec bd 9a 23 2d bd
       -0.11234269 0.09192298 -0.1155721 -0.04227028
000010 92 bb 11 3e 55 15 85 3d 27 37 cd 3d 97 13 ce 3b
       0.14231709 0.064982094 0.10020285 0.0062889564
000020 6a f4 51 3d 67 86 bf bd fc fe b0 bd 9f 9e 56 be
       0.051258482 -0.09351807 -0.086423844 -0.20958947
000030 c5 96 84 3d 84 02 a6 3d 15 85 99 bb 48 94 70 3d
       0.064740695 0.081059486 -0.004685054 0.058735162
000040 b0 78 71 bb 1e 78 80 bd 87 fc e5 bd c8 85 13 3d
       -0.0036845617 -0.062729105 -0.112298064 0.036016256
000050 60 5d 93 3d f5 08 82 3d 34 e9 00 3d b5 da d6 3c
       0.07195544 0.06349365 0.0314724 0.026227335
000060 2f c2 37 3c ee 7f 4f be 48 1f 05 be 9a 74 a7 3d
       0.011215731 -0.20263645 -0.13000214 0.08176537
000070 cb 8e a9 3e 9f 0e de bd 58 bd b6 3c b3 b4 3a 3e
       0.33116755 -0.108426325 0.022307083 0.18232994
000080 1f d2 ed bd df 91 27 bd 38 64 7a 3d 07 9f 31 be
       -0.11612343 -0.040910598 0.061130732 -0.1734582
000090 f7 5d 9f bc 16 b4 d9 bc 25 01 a9 3c 9e 9a 59 be
       -0.019453986 -0.02657513 0.020630429 -0.21250388
0000a0 ff 2a 17 3d bc b1 f1 3d 9e 61 8e bd 74 4b 81 3d
       0.03690624 0.11801478 -0.06952213 0.0631322
0000b0 13 37 2e 3e 56 8c 73 3d d3 d8 8a bd 49 df 54 be
       0.17013197 0.059460007 -0.06779637 -0.20788302
0000c0 bf 72 c3 3d b0 73 19 bd 82 f8 5f be 39 8b fe 3c
       0.095433705 -0.037463844 -0.21872142 0.031072246
0000d0 3a 7f 89 3d 64 41 ba 3d b5 00 18 bd e3 51 7e 3e
       0.0671372 0.090945035 -0.03711005 0.24835925
0000e0 71 33 d6 3d a4 9d eb bd 7d 6b 60 3e 90 41 12 3d
       0.104590304 -0.11504677 0.21916004 0.035707057
0000f0 69 4e 00 bd dc ab 14 3e b2 5e 1a be a7 06 03 bd
       -0.031324778 0.14518684 -0.15075186 -0.031988766
000100 cb 87 96 3d d2 1e 79 b9 8d 74 0a bd cc 51 af bd
       0.07350119 -0.00023757972 -0.033802558 -0.085605234
000110 c6 ce ce 3c e2 71 bb bd b8 6b ed 3d 94 c7 37 3d
       0.025245082 -0.09152581 0.11592811 0.044868067
000120 4e 96 8d bd 0f a1 b4 3d 23 d6 03 3d 75 aa 6e be
       -0.06913434 0.08819782 0.03218664 -0.23307212
000130 1d 46 55 bd ae 28 a8 3d 96 cc 0d be b5 1a 90 bd
       -0.05206882 0.08210884 -0.13847575 -0.07036344
000140 52 a0 ff 3d b2 25 4f 3e c6 bf f8 3c e3 ad 79 3d
       0.124817505 0.20229223 0.030364882 0.060956847
000150 6d 1a 87 bd 0b fa 15 bd 92 e2 71 bd 1f 99 54 3d
       -0.06596837 -0.036615413 -0.059053965 0.05190384
000160 6f 44 19 be 97 5e 04 be c3 ea ca 3c 7c 41 5b 3e
       -0.14967512 -0.12926708 0.024770146 0.21411699
000170 d6 7a 1f 3e 71 22 b1 bd 96 9a 79 bd 31 6d fb 3b
       0.15574202 -0.08649147 -0.06093844 0.0076729287
000180 b3 7d 26 be 40 4c ac 3d f6 5f 38 3a 20 ea a9 bd
       -0.16258888 0.08412981 0.0007033342 -0.08296609
000190 1e 5a 97 3c 48 f2 41 be e5 79 63 3d 95 f3 d1 3d
       0.018475588 -0.18940079 0.05553617 0.10251538
0001a0 a7 b9 08 bd 17 d4 08 be 91 d9 34 3d 1d 8d e2 3d
       -0.033380177 -0.13362156 0.0441528 0.110620715
0001b0 0d 5e d3 be e4 08 44 be 2b bd 83 3d 12 3d 88 bd
       -0.41282693 -0.19144017 0.06432565 -0.06652273
0001c0 30 3a f1 3d 19 21 b9 3d 5e 11 31 3c 89 b2 91 3d
       0.117786765 0.09039516 0.010807363 0.07114131
0001d0 e3 62 9d 3a 8c a4 5a 3d 29 d0 1f 3e df bf 16 3e
       0.001200762 0.05337958 0.1560675 0.1472163
0001e0 98 8a 85 3b 9b 96 14 bd d2 3f 55 3d e6 d9 fd 3c
       0.0040753596 -0.03627644 0.052062817 0.030987691
0001f0 43 a8 9e 3d 06 3a a6 3d 67 90 25 3d f8 67 c0 bb
       0.07746937 0.08116536 0.040420916 -0.005871769
000200 ef 82 f8 bd 0a ec d3 bb e3 fd 82 3d 59 5e 8d bd
       -0.121343486 -0.006467347 0.06396081 -0.06902761
000210 ec 0f 85 bd c9 8f 06 3e 0d 50 5b 3c 92 52 e9 bd
       -0.064971775 0.13140787 0.013385785 -0.11392702
000220 17 3b c6 bd db b3 f7 bc b7 54 95 3c 86 5a 51 bb
       -0.09679239 -0.030237129 0.018228872 -0.0031944825
000230 30 07 69 3c ef 6e 26 be 08 0b a3 3c 3c 72 b1 bd
       0.014222905 -0.16253255 0.019902721 -0.086643666
000240 9c 0f 66 bd 37 b3 a0 3d cb cc ac bd 57 4c 93 bd
       -0.05616723 0.078466825 -0.08437499 -0.07192295
000250 ad b2 5e be c9 85 7f 3d 7a 7a 6d bd d2 e7 c5 3c
       -0.21747847 0.062383447 -0.05797813 0.024158392
000260 5b 5f 1a 3c e3 5e 98 be d0 4b ed 3d 73 5f 82 3c
       0.009422149 -0.29759893 0.11586726 0.015914654
000270 22 1c 88 bd 15 c4 ce 3d 90 0e e0 bd fc 81 bf 3d
       -0.06645991 0.100959934 -0.109402776 0.093509644
000280 08 6b 2d 3e b0 f8 1b bd f4 9c a2 bd 7e b7 5e bd
       0.1693536 -0.038078964 -0.07940093 -0.05437421
000290 a7 6d 44 be 2b 87 d8 3d 73 60 b5 3d aa b1 80 be
       -0.19182454 0.10572656 0.08856287 -0.25135547
0002a0 48 10 93 bd 97 86 d8 3c f2 a9 5c 3d a7 93 18 3c
       -0.0718084 0.026431365 0.05387301 0.009312547
0002b0 a3 15 92 bd 82 21 83 bc 87 3b 4b 3c c3 ef 1a be
       -0.07133033 -0.016007189 0.012404329 -0.15130524
0002c0 ca 5f 33 be e9 ca ca 3d 96 67 a4 bd d2 40 32 3c
       -0.1751701 0.09901983 -0.0802757 0.010879712
0002d0 5e c7 0c bd 43 e6 14 bd ed b9 2e be 3f 9f 18 be
       -0.03436982 -0.036352407 -0.17063113 -0.14904498
0002e0 ec d6 15 3d c9 4a ac 3d a1 ac 1a 3d 6c dd 0a be
       0.03658192 0.08412702 0.037762288 -0.13561028
0002f0 00 e5 65 3c 8c 57 16 be f9 44 87 be ff 18 f5 bd
       0.014031649 -0.14681834 -0.2641981 -0.11967658
000300 1e 05 85 3d b5 2a 39 bd 4c b3 cc bd 4c dc a5 bc
       0.06495117 -0.045206744 -0.09995136 -0.020246647
000310 46 91 68 3c 82 1c 95 bd a2 22 23 bb 3b d8 7b bc
       0.014194792 -0.07280828 -0.002489247 -0.015371378
000320 15 84 f4 bd 7e 4b 82 3d 05 86 2d 3d b5 75 79 bd
       -0.11939255 0.06362055 0.04236414 -0.06090327
000330 57 df e4 3b c3 90 86 3d ab 68 1a 3e 6d 24 59 be
       0.006984632 0.0657058 0.1507899 -0.21205302
000340 d6 63 20 bd 13 c6 bd 3d dd 2e 90 be cc ea 0d 3d
       -0.03915771 0.09266295 -0.28160754 0.034647748
000350 62 e7 70 3c ed 37 39 be 50 9e 0e 3e 1c 9e 54 3e
       0.014703603 -0.1808774 0.13927579 0.20763439
000360 5a 7e ac 3d 3e 1c 40 3e 4a df 2d be d0 5d 98 3d
       0.08422537 0.18760774 -0.1697971 0.07439768
000370 65 09 52 3d 34 74 a1 be 8b 45 b6 bd 0f c1 34 3e
       0.05127849 -0.31533968 -0.08899983 0.17651771
000380 29 a5 12 be 88 8b 6e 3d 43 31 08 be fa ad 99 be
       -0.14320816 0.058238536 -0.13300042 -0.30015546
000390 bc 8c 76 bc d8 86 e9 bd 63 81 da bc 82 a9 40 3d
       -0.015048202 -0.114026725 -0.026673025 0.047036655
0003a0 42 7e a4 ba 32 91 3e bd 46 78 00 3d 68 b6 7d bd
       -0.0012549835 -0.046525188 0.0313647 -0.061941534
0003b0 53 11 63 bd d2 d0 75 3d 81 27 0f 3a 1f ec b6 bc
       -0.055436444 0.0600136 0.00054609036 -0.022329388
0003c0 fb 48 49 bd d8 f7 a8 bd 82 b5 02 be be 87 7f be
       -0.049141865 -0.082503974 -0.12764552 -0.24954125
0003d0 26 7d 75 bc f7 c1 16 be 8e c2 39 3d 86 68 34 3c
       -0.014983451 -0.14722429 0.045351557 0.011011248
0003e0 f2 f4 a2 3c fc c2 2d 3d 13 52 12 be 45 93 9f bd
       0.01989219 0.04242228 -0.14289121 -0.07791761
0003f0 4f 08 1d be 4f 9f 03 be 0c 1d 50 be dc e6 e6 3d
       -0.153352 -0.1285374 -0.2032358 0.11274502

layer.7.bias f4 [64]
000000 be 72 60 be b2 bf fe bd ed 47 ea be c0 15 c5 be
       -0.2191877 -0.12438907 -0.45758 -0.38493156
000010 0b 7b a3 be 06 93 db be a1 bd 45 be 7c 8a 88 3d
       -0.31929812 -0.42885607 -0.19310619 0.06667039
000020 ad f7 85 be 32 a6 3d 3d a7 07 e2 be 06 0d 78 be
       -0.26165524 0.046301074 -0.44146463 -0.24223718
000030 b5 07 91 3d dc 94 75 be 20 ce b4 be 44 dc 50 be
       0.07081548 -0.23982567 -0.3531351 -0.20396525
000040 60 5b 05 be 17 4f b2 be af 40 f4 bd f0 9d c7 be
       -0.13023138 -0.34825966 -0.119264 -0.38987684
000050 b1 fc 96 be a0 9d af be ad 90 90 be 71 f6 18 be
       -0.29489663 -0.34299946 -0.2823538 -0.1493776
000060 32 7a a9 be b1 35 8f be d7 69 b7 be 13 c6 98 be
       -0.3310104 -0.2797065 -0.35822937 -0.2983862
000070 2f 07 a5 bd bc c3 0d bd dd 52 c3 bd df 25 2f be
       -0.08058011 -0.034610495 -0.09537289 -0.1710429
000080 63 33 e8 be 00 1a 03 3d b9 47 b3 be a9 89 90 bc
       -0.45351705 0.032007217 -0.35015658 -0.017643766
000090 de 44 f2 be fe d2 a6 bd bc 8f 71 be 6b 3f b9 be
       -0.47318166 -0.08145712 -0.23589987 -0.36181197
0000a0 ec 10 1c be 22 62 ac be 0a 7c 58 be af 14 a0 be
       -0.1524083 -0.3366862 -0.21141067 -0.3126578
0000b0 ad f3 a0 be ec 3c 98 bd fd 64 14 be a7 ba 99 be
       -0.3143591 -0.07433495 -0.14491649 -0.30025217
0000c0 41 23 a2 be 0c a1 32 be ef c3 41 be 75 86 a8 be
       -0.31667522 -0.17444247 -0.18922399 -0.32915083
0000d0 8e 98 34 be 96 74 e9 be ba 84 cd be 62 71 07 be
       -0.1763632 -0.4559676 -0.40140325 -0.13226846
0000e0 0d e4 5c be dd 98 5e be a3 e0 72 be a8 d7 c7 be
       -0.2157137 -0.21738 -0.23718505 -0.3903172
0000f0 b5 9e d5 be 8f 93 14 be 9b 1a 73 be 97 5d ce be
       -0.41722646 -0.14509414 -0.23740618 -0.40305778

fc_layer.0.weight f4 [32, 1024]
000000 e8 35 01 be a3 b9 3f 3d 55 f1 55 bd f8 72 7d bd
       -0.1261822 0.046807896 -0.052232105 -0.06187722
000010 05 df 18 bd 38 93 81 3c ab f8 ff bc 91 ec 06 be
       -0.037322063 0.01581727 -0.031246504 -0.1317618
000020 39 42 e2 bd 24 c5 02 bd ec da fc 3d a5 00 80 3e
       -0.11047787 -0.03192629 0.123464435 0.25000492
000030 6d 8b 13 3d bf 7a b5 3b 71 91 c0 bc 12 1b 03 3b
       0.03602164 0.005538314 -0.023506852 0.0020005149
000040 88 39 60 be e4 ab 3e bb e9 ca 97 bc a2 81 c7 bd
       -0.21896946 -0.0029094154 -0.018529372 -0.09741522
000050 b8 cd 7d 3c 56 a3 5d bc 10 a3 3d 3b c5 0e 17 3e
       0.015490942 -0.013527712 0.0028936304 0.14751728
000060 25 5e 82 bd 99 3a 3e 3c 1c 35 8c 3e 05 ac 1d be
       -0.06365613 0.01161065 0.2738427 -0.15397651
000070 6e 97 04 3d e4 94 f8 3d ff 5e 11 be 19 0a 0e be
       0.032370977 0.12137774 -0.14196394 -0.1387104
000080 cc 06 74 bd 2e fd cf bd 66 79 d8 3c 65 89 24 be
       -0.059576795 -0.10155712 0.026425075 -0.16068037
000090 f7 19 1a 3d 0a 93 49 bb cd fa c9 3d 82 ee 00 be
       0.03762242 -0.0030757808 0.098622896 -0.12590984
0000a0 f7 8e 16 3d 8a bc a7 bd ea 40 ae 3d 48 e3 34 3e
       0.036757436 -0.08190258 0.08508475 0.17664826
0000b0 b6 c0 82 bd 5d 62 b8 bc 50 14 e1 bd f2 85 e5 bd
       -0.06384413 -0.02250784 -0.109902024 -0.11207189
0000c0 2d 45 3e 3e b4 be 0b bd 0d 50 2e bd ac 9d 8c 3d
       0.18581076 -0.034117416 -0.04255681 0.06866011
0000d0 4f d3 83 be c7 83 75 be c9 64 53 bd fe e0 2e bd
       -0.25747153 -0.2397605 -0.051609788 -0.042695038
0000e0 f4 5e 99 bc fe be a7 3c 6f 0c 03 be 97 f6 b7 bd
       -0.018722035 0.020476814 -0.12797712 -0.0898258
0000f0 b2 d0 df bc d4 52 8e bd 97 d4 89 bd 61 c9 c8 b9
       -0.027321193 -0.06949392 -0.067300014 -0.00038297012
000100 07 4d 48 bd 0a 5a dc bb 67 f6 34 3c 18 8c 0c bd
       -0.048901584 -0.0067246007 0.011045075 -0.03431329
000110 62 d5 53 3d 65 6a fd 3d 84 91 e5 bc ae 20 e0 3d
       0.05171717 0.12373809 -0.028023489 0.10943733
000120 98 97 00 bd 87 1a ef bd 0f b1 1a be 9d 52 3a bd
       -0.03139457 -0.116749816 -0.15106605 -0.045488942
000130 32 48 1f be 09 46 24 bd 0f d3 dd 3d 53 4f 05 bd
       -0.15554884 -0.040105853 0.10831272 -0.032546353
000140 d9 07 91 3c df df 26 3c bc cb b1 3d 93 2d e3 3c
       0.017703937 0.010185211 0.086814374 0.027731692
000150 fa 00 6d bd 0e 33 80 bd 1d 97 5b 3c 64 b5 88 bd
       -0.05786226 -0.06259738 0.013402727 -0.066752225
000160 06 a6 19 3d 16 93 b5 3b 50 2e 25 be 29 ae a5 bd
       0.037511848 0.0055412157 -0.16130948 -0.08089859
000170 b3 e8 d4 3d 30 68 8a bd 78 21 ff 3d 53 e6 1d 3d
       0.10395946 -0.067581534 0.124575555 0.038549732
000180 22 fb 28 bd ab a8 d8 3d 3d 94 ad bc b1 38 8e bd
       -0.041255124 0.10579046 -0.02118885 -0.06944407
000190 2b fc 14 3d bb c6 4f 3d 15 ec 80 3b b6 78 c3 bd
       0.0363733 0.050726634 0.003934393 -0.09544508
0001a0 cc 5d cc 3c 6c f7 bf bc 42 52 d4 bd db a6 c1 3c
       0.02494707 -0.02343341 -0.10367252 0.023639133
0001b0 32 52 69 bd f9 67 b4 3d e0 47 e4 bc 9c cc 7f bd
       -0.056963153 0.08808894 -0.027866304 -0.06245099
0001c0 bb 41 1a be e3 83 b5 3d 50 3b a5 bd 68 74 97 3d
       -0.15064137 0.08863046 -0.080679536 0.073952496
0001d0 a9 96 54 be 7c 70 fc bd d2 6a 95 be bc c9 bb 3d
       -0.20760597 -0.12326142 -0.2918306 0.09169337
0001e0 35 e6 dc bd c1 ee ed 3d 19 01 19 3e 05 ff 0f 3d
       -0.10786096 0.11617804 0.14941825 0.035155315
0001f0 7e 08 88 3d 30 f8 fa bc a7 1d 02 be c2 e5 cf 3c
       0.06642245 -0.030635923 -0.12706624 0.025378112
000200 f9 c1 86 bd c1 12 3d 3d a1 ba c5 bd cb c1 02 3c
       -0.06579966 0.046160463 -0.09654737 0.007980774
000210 fe b0 a0 3d 45 e0 14 bd bf 3c 56 3e 18 3e e6 3d
       0.078462586 -0.036346693 0.2092161 0.11242312
000220 be 5d 91 bd 7a 03 34 bd c9 3a 9f 3d e3 02 46 bd
       -0.07097958 -0.043948628 0.07774884 -0.048342597
000230 9b 35 ce bc 2c 0a ff 3d ac 3d 70 be e1 48 1d bd
       -0.025172045 0.12453112 -0.23461026 -0.03839958
000240 a8 a6 b4 bd d7 18 21 3d d4 42 36 bd 02 c2 58 bd
       -0.0882085 0.03933033 -0.044497326 -0.052919395
000250 0d d8 83 bb 79 44 1f 3e 82 b2 93 bd d6 92 3e bd
       -0.004023558 0.15553464 -0.07211782 -0.046526752
000260 8c 49 9d bd 16 dd ce 3c 28 e2 31 3c 70 e0 bf bd
       -0.076800436 0.025251906 0.0108571425 -0.0936898
000270 4e c8 ad 3d 4f 5e ae bc 98 0b 77 bd 21 ae c1 3d
       0.08485471 -0.021285204 -0.06031379 0.094570406
000280 c7 ed 2a be 89 5f c4 bc 38 bd b0 bd a9 d8 a3 3c
       -0.16692267 -0.023971336 -0.086298406 0.020000773
000290 03 01 67 3e f2 12 b3 3d 52 96 19 3d ea 57 5c be
       0.2255898 0.08743848 0.037496872 -0.21517912
0002a0 a8 52 51 bc 2c 35 db ba 74 fe 1e 3d 6b d0 16 be
       -0.012776054 -0.001672422 0.038816884 -0.14727943
0002b0 2b fb 0a bd 11 3d 33 be 6d a8 19 bd 58 19 ac bd
       -0.03393094 -0.17503764 -0.03751414 -0.084032714
0002c0 c1 67 6a 3d 2f a8 4c 3d ac 71 11 bb 94 dd b0 3d
       0.057227854 0.04996508 -0.0022192998 0.08636013
0002d0 72 84 d4 3d 1c 85 11 3e e0 18 83 3d b6 0e 14 3e
       0.103768244 0.14210933 0.06401229 0.14458737
0002e0 f8 c8 6f be a7 a0 85 3d c5 86 02 be 44 5e 66 bc
       -0.23416507 0.06524783 -0.12746723 -0.014060561
0002f0 d6 e3 33 3d 61 5f 3d bd 49 54 fe bd da 7f 05 3d
       0.043918453 -0.04623354 -0.1241842 0.032592632
000300 57 2c 62 be 2e b3 2d 3e 8a b3 a4 bc 56 4d ab bc
       -0.22087227 0.16962883 -0.020105142 -0.0209109
000310 26 2a 7d 3d 35 be 9a bd d3 85 be 3c ec ca 65 3e
       0.061807774 -0.0755581 0.023257172 0.2244069
000320 9c 21 29 be 49 a4 e1 bd bb bb 8d 3e b1 0f 09 be
       -0.16516727 -0.11017663 0.2768229 -0.13384892
000330 91 f8 7b 3d cd ca c5 3d 73 a1 1c be c7 3e 65 3c
       0.06151635 0.09657822 -0.15295963 0.013992018
000340 c6 38 bd bb aa f2 92 3d 87 2c b7 bc 2b 62 26 bc
       -0.00577459 0.07175191 -0.0223601 -0.010155241
000350 22 51 bd bc c4 37 70 bd 55 64 05 3d 4d d6 e6 bd
       -0.023109976 -0.058646932 0.032566387 -0.112713434
000360 b9 0f 0d 3d 26 ee b2 3c b8 69 87 bd e2 97 f3 bd
       0.034438822 0.021842074 -0.06611961 -0.11894204
000370 bc 8e dc bd b3 cc a6 3b 4a aa 1a 3e 94 be ab 3b
       -0.10769412 0.00509032 0.15104023 0.0052412245
000380 48 05 4d bd 6f fd 14 bd ea 61 a3 be 8b 10 5e ba
       -0.050053865 -0.036374506 -0.3191064 -0.0008471093
000390 e0 16 aa 3d 17 66 4c 3e fa a0 dd bc ca 0e c3 3c
       0.08305144 0.19960819 -0.027054299 0.023810763
0003a0 89 e0 95 bd 01 fa a4 bd 6f da 95 bd db 01 ec 3d
       -0.07318217 -0.08055497 -0.073170535 0.115237914
0003b0 a6 92 83 bd 50 a1 2d bd 07 63 e3 bc 1f 44 e8 bd
       -0.06424455 -0.042390168 -0.02775718 -0.11341118
0003c0 91 cb c3 3d f3 c7 88 bd 05 58 b0 3d 89 18 2d 3d
       0.095603116 -0.06678762 0.086105384 0.042259727
0003d0 e7 b7 b3 3d c2 25 8a be 4b 6e 3e 3e a3 5d 31 be
       0.08775311 -0.26981932 0.18596761 -0.17320876
0003e0 79 55 09 3c 27 02 6d 3e f9 72 71 be ec 18 cb bd
       0.008382195 0.23145352 -0.23579015 -0.09916863
0003f0 93 ec 5d bc 1e c7 ed 3d 64 fd 59 be cf 9e 3f 3d
       -0.013545173 0.11610244 -0.21288067 0.04678231

fc_layer.0.bias f4 [32]
000000 8c 84 90 3e ef 5b 90 3e 7e 83 d3 3c 9f c2 7f 3e
       0.28226125 0.2819514 0.025819536 0.24976586
000010 44 cd 0d 3e 6a d4 bc 3e b1 f7 1a bd 7e e6 91 3d
       0.13847834 0.3688081 -0.037833873 0.07124041
000020 e3 df 1e 3e 51 f3 b6 3e 62 f9 4f 3d fd a9 ef bc
       0.15515094 0.3573251 0.05077494 -0.029255861
000030 91 58 89 3e 68 76 12 3e 1c e4 e3 3e 0c af 1f 3e
       0.26825383 0.14302981 0.4450997 0.15594119
000040 4c 98 a7 3e 67 4d a2 3e 74 11 35 bd 90 01 40 3d
       0.3273338 0.31699678 -0.044206098 0.04687649
000050 63 5f 05 3d 5c 1d 86 3e ee 15 94 3d 29 4f a3 3e
       0.03256167 0.26194274 0.07230745 0.31896332
000060 73 e3 c9 3e b6 99 8d 3e 00 76 a4 3c f3 19 a4 3e
       0.39431342 0.27656335 0.020075798 0.32051048
000070 4e 45 a2 3e 14 d7 dd 3e 99 9e f8 bb 21 03 46 bd
       0.316935 0.43328154 -0.0075872657 -0.048342828

fc_layer.3.weight f4 [32]
000000 fe fa 44 3f bf 4b 0c 3f ef 81 1b 3f ae 18 43 3f
       0.76945484 0.5480308 0.6074514 0.76209533
000010 76 59 5b 3f 41 ae 56 3f 4e fd fd 3e 67 49 6b 3f
       0.8568338 0.8385964 0.4960732 0.9190888
000020 ac f6 05 3f 60 a6 54 3f 4c 6c 2b 3f cb d3 1f 3f
       0.52329516 0.8306637 0.6696212 0.62432545
000030 f0 2d 2f 3f dc a3 2c 3f d0 07 68 3f 70 03 34 3f
       0.6842947 0.6743753 0.9063692 0.70317745
000040 b9 1b 3c 3f 19 b9 57 3f 8e a2 45 3f 0d b9 05 3f
       0.734798 0.8426681 0.77201164 0.5223549
000050 29 e1 21 3f a5 d8 24 3f dd 51 29 3f 7e 7d 48 3f
       0.6323419 0.64393073 0.6614054 0.78316486
000060 4b 10 77 3f 4e 57 4b 3f ec 92 11 3f 9d e6 24 3f
       0.96509236 0.7943009 0.5686481 0.6441439
000070 d6 89 70 3f 2b 94 5e 3f 71 4a 16 3f 89 ee 30 3f
       0.9396032 0.86944836 0.5870734 0.69113976

fc_layer.3.bias f4 [32]
000000 b8 2e 24 3f 1f 9c 54 bf e1 89 49 bf 10 7c 12 bf
       0.6413379 -0.8305072 -0.7872601 -0.57220554
000010 bc 56 db be 7f 73 f5 3e 0d d1 0f bf f0 a2 8e 3e
       -0.4283961 0.4793968 -0.5617836 0.27858686
000020 bc 6c 35 bf c1 a7 22 3f 63 2c 7b 3f 05 a5 2d 3f
       -0.7086904 0.6353722 0.98114604 0.67829925
000030 85 a8 13 3f 47 6c 1f 3f 27 60 b6 bd 26 f2 2f bf
       0.57679015 0.62274593 -0.08905058 -0.68728864
000040 70 90 1e 3f fc f0 8c be ad d1 a2 be 25 e6 5e bf
       0.61939144 -0.27527606 -0.31800595 -0.8706992
000050 d9 3e 2d 3f 92 10 06 3f d0 29 21 3f ed b4 c2 be
       0.6767402 0.52369034 0.62954426 -0.3802866
000060 8e da 82 3e 09 50 11 3f c4 b5 10 bf ab 90 3b bf
       0.2555737 0.5676275 -0.5652735 -0.7326762
000070 eb 0e 9a bd e1 e4 c5 3c d5 28 22 bf 6f 65 f8 be
       -0.075223766 0.02415699 -0.63343555 -0.48514888

fc_layer.3.running_mean f4 [32]
000000 80 ae ac 40 c0 80 d2 3f fc 35 8f be 62 bf a2 40
       5.3963013 1.6445541 -0.27970874 5.085862
000010 a0 d5 83 bd 63 18 a5 40 af f7 2f 3f 15 3e 10 40
       -0.0643723 5.159227 0.6873731 2.2537892
000020 fa 11 59 3d 18 31 0b 41 e7 0e 0f 41 2b 92 ab 40
       0.05299566 8.699486 8.941138 5.361593
000030 ca df 18 40 74 0d 0e 40 16 b8 51 40 b6 ca e2 3e
       2.388659 2.219571 3.2768607 0.4429528
000040 af 09 17 41 1c 44 40 3f 72 60 8c 3e 61 6c 6b be
       9.439864 0.75103927 0.27417332 -0.22990562
000050 a8 1f 82 40 53 81 d5 3f a7 5e 56 40 14 3f 19 40
       4.0663643 1.6680092 3.3495271 2.394475
000060 74 3e e7 40 91 7a 24 41 83 98 c7 3d a1 29 1a 3f
       7.2263737 10.279923 0.09745886 0.6021977
000070 3d d7 86 3f b2 6c 56 40 c8 6c e6 3f da da eb 3f
       1.0534436 3.3503842 1.8001947 1.8426163

fc_layer.3.running_var f4 [32]
000000 59 79 0a 43 cf e3 8f 42 c8 45 50 41 3c 8f 31 43
       138.47401 71.94494 13.017036 177.55951
000010 72 7e 5c 41 60 28 11 43 1a 1f 22 42 8c 2e 74 42
       13.78087 145.15771 40.530373 61.045456
000020 34 5f 96 41 e8 f6 6c 43 5f 00 6f 43 5a f3 07 43
       18.796486 236.96448 239.00145 135.95059
000030 78 3e 48 42 53 4e 60 42 9e ba b4 42 32 c3 c7 41
       50.061005 56.07649 90.36449 24.97031
000040 c6 2c 8d 43 36 2b 2e 42 ba ba bf 41 7d df 86 41
       282.3498 43.5422 23.966175 16.859125
000050 81 85 19 43 2e 73 38 42 e2 c8 c3 42 4c 39 a2 42
       153.5215 46.11248 97.89235 81.11191
000060 98 83 48 43 06 6e 9b 43 3f 14 aa 41 2e 3b d8 41
       200.51404 310.85956 21.259886 27.028896
000070 8d 16 11 42 22 a4 a0 42 c3 96 8b 42 28 1e 91 42
       36.272022 80.32057 69.79446 72.5589

fc_layer.4.weight f4 [8, 32]
000000 d0 a1 ee bf 56 b9 cf 3f 21 54 6c 3f c8 7a ed 3e
       -1.8643131 1.6228435 0.9231587 0.46382737
000010 7e 5b f5 bd 6d 74 93 bf 8f 20 16 3f ea f7 e0 be
       -0.119803414 -1.1519905 0.5864343 -0.43939143
000020 1a 7a 15 3f ba 0f fa bf f8 a9 47 c0 8c bc 42 c0
       0.5838944 -1.9536049 -3.119749 -3.042758
000030 1e 06 c9 bf 1e 79 02 c0 cd 10 37 3d 53 8b 26 3f
       -1.5704992 -2.0386424 0.044693757 0.6505634
000040 d4 0d 0b c0 b4 fe c1 3e f1 56 5c 3e 18 42 06 3f
       -2.172719 0.37889636 0.2151754 0.524446
000050 ca c8 1a c0 b0 d9 ba bf df 43 20 c0 52 ce ab 3e
       -2.4185052 -1.4597683 -2.5041425 0.33555847
000060 da 24 8e be b7 bb e8 bf 94 c3 22 3e 4d c6 a2 3f
       -0.2776249 -1.8182286 0.1589492 1.2716767
000070 a0 88 c4 3d 8e b2 b1 bc ed ab 7d 3f b9 4e 1a 3f
       0.09596372 -0.021691587 0.9909046 0.6027637
000080 d5 88 40 bd 64 b3 b1 3e 72 5f 3b bc 98 68 28 3e
       -0.047005493 0.34707177 -0.01143633 0.1644615
000090 e9 a3 91 3e e0 f3 ae bc 61 54 6c 3d d7 e0 39 be
       0.28445366 -0.021356523 0.057697657 -0.18152176
0000a0 a1 da bc 3e 82 e4 22 3d f9 24 b7 bd 3a 6a c8 be
       0.3688555 0.039768703 -0.08942599 -0.39143544
0000b0 bc 73 e5 bd eb d6 e9 bd 7d 5d cf 3d 70 cf c0 3e
       -0.11203715 -0.114179455 0.10125253 0.37658262
0000c0 d7 3c ca 3c 20 3d fc 3b 41 6f 09 be f0 cc c7 3e
       0.024687214 0.0076977164 -0.13421346 0.39023542
0000d0 b4 a4 f5 be ef a4 2c 3c ec 3b aa be 8d b5 ca 3d
       -0.4797722 0.01053737 -0.33248842 0.09897909
0000e0 86 2e c3 3d 6b fa af 3d f1 0c 1e 3b 65 13 df 3e
       0.09530358 0.08592685 0.00241166 0.43569484
0000f0 77 68 f0 3c bf 8f 3e bd d2 78 37 3c 30 0c cc 3b
       0.029346688 -0.046523806 0.011198239 0.006227039
000100 56 15 0f 3e 87 ef 35 3e 23 87 dc bd d3 9c 24 3e
       0.13972983 0.17767154 -0.10767963 0.16075449
000110 d0 dd 95 3e 74 c8 20 3e de b1 ba bd 87 7e 82 be
       0.29270792 0.15701467 -0.09115957 -0.25487158
000120 63 a0 91 3e 48 d5 ef 3d a5 8d 6a 3d 12 0e 8a be
       0.28442678 0.11710602 0.05726399 -0.2696386
000130 4f 61 14 bd 08 13 98 bc 08 90 19 3e ec 2a e3 bd
       -0.036225613 -0.018563762 0.1499635 -0.11092171
000140 43 69 5a 3e b0 b5 38 3e d6 e4 01 be 56 a2 85 3e
       0.21329217 0.18038058 -0.1268495 0.26100415
000150 bf 4b fa bd 70 8a 41 bc e5 ae 62 be ff 85 25 3e
       -0.12221479 -0.011812791 -0.2213703 0.16164397
000160 87 19 b9 3d cc a2 63 3e 22 bb af 3d 36 ee 0b 3e
       0.09038072 0.22230071 0.085806146 0.13665089
000170 28 f6 03 bd 58 64 82 3d f4 c1 c6 bd 72 ca 28 bd
       -0.032217175 0.06366795 -0.097049624 -0.041208692
000180 bd f1 3e 3e 90 bb 05 3e 01 93 c3 bd b3 a5 83 3d
       0.18646903 0.1305983 -0.09549523 0.06428089
000190 c6 a1 6d 3d bc b3 0e 3e 4d 6f 39 be f5 9d cd bd
       0.058015607 0.1393575 -0.18108864 -0.100398935
0001a0 96 79 22 bd e4 5b 0e 3e 1f e1 69 3e 16 a0 0e be
       -0.039666735 0.13902241 0.22839783 -0.13928255
0001b0 c1 85 50 3e 4c f8 6e 3e ac d6 cc 3d f1 d5 2f be
       0.20363523 0.23336905 0.10001883 -0.17171456
0001c0 7f a6 5b 3e a7 51 07 3e 7d d6 df bd 2f ca 1b be
       0.21450232 0.13214742 -0.10929582 -0.15213846
0001d0 50 3b f5 bd 7c 2a 32 3e 31 68 ec bd cd ae d3 3d
       -0.119742036 0.17399019 -0.115433104 0.10336075
0001e0 19 40 47 3d 6a d1 58 3e f1 ad 59 be 27 5f 0e 3e
       0.048645113 0.21173635 -0.2125776 0.13903485
0001f0 87 0d 46 bc 2b c9 43 3d b5 1d 29 be 3d 69 ea bd
       -0.012088186 0.04779927 -0.16515239 -0.11445854
000200 b1 3a eb 3d 82 14 7e bd ad a0 a5 bd b5 19 1f bd
       0.11485804 -0.062031277 -0.08087287 -0.038842876
000210 83 fc d3 3c c6 8f 8a 3d e8 d8 91 bd 79 20 41 3d
       0.025877243 0.06765704 -0.0712145 0.04715011
000220 97 cc 98 bd 88 02 b0 3d b6 f5 60 3e 66 dc e6 3d
       -0.074608974 0.08594233 0.21968731 0.112725064
000230 27 cc d0 3d e1 f8 16 3e 35 97 0e 3d 4a 6c a7 bb
       0.10195189 0.14743377 0.03481217 -0.0051093446
000240 c8 38 29 3e d3 25 58 3c fc b4 3f bd cf 0e 29 be
       0.16525567 0.013192612 -0.04680346 -0.16509555
000250 a5 29 e5 3d ba 52 94 3d 7e 34 df 3d ad a8 10 bd
       0.11189584 0.07242341 0.10898684 -0.03531711
000260 35 e5 bf 3c e5 a4 1d 3e a5 8b 3f be f2 8f 11 bd
       0.023424724 0.15394934 -0.18705614 -0.035537668
000270 35 59 15 be 9b 1e a8 bd 2c 6b df 3c bd 75 e1 3d
       -0.14584811 -0.082089625 0.027272783 0.11008785
000280 c2 22 06 be 38 b8 1e be a6 ee 22 3d d6 76 5f be
       -0.13099197 -0.15499961 0.039778374 -0.21822676
000290 08 86 4a bd ca d4 26 be 42 5c c8 3d 3f fa e1 3d
       -0.04944423 -0.1629211 0.09783222 0.11034059
0002a0 f5 72 07 be f7 36 0e be ee 03 52 3d dd dc 10 3e
       -0.13227446 -0.13888155 0.05127328 0.14146753
0002b0 b6 aa d9 bd de 41 81 bd d2 a0 0a be 81 eb 53 3c
       -0.10628264 -0.06311391 -0.1353791 0.0129345665
0002c0 34 2a 3b bd 7e aa 37 bd ec c5 96 3d 01 c9 87 bd
       -0.045694545 -0.04484033 0.07361969 -0.06630135
0002d0 98 5b 17 3e d6 db cb bd 14 c7 3b 3e cb 8b d2 bd
       0.14781034 -0.0995404 0.18337661 -0.1028057
0002e0 af 7a 4f be f4 db c9 bd 05 fd b7 bc cd e4 f2 bd
       -0.20261644 -0.09856406 -0.022459516 -0.118600465
0002f0 41 17 58 be d0 27 41 be 0d 9a 11 3e 9c 71 13 3e
       -0.2110262 -0.18862844 0.14218922 0.14398807
000300 6b d4 62 be 81 25 15 3d da e2 42 3e 6e ba 88 be
       -0.22151344 0.03641272 0.1903185 -0.26704735
000310 ea f4 e7 bd 42 e0 ac be d2 ca 15 3e 07 66 b7 3d
       -0.113260105 -0.33764845 0.14628151 0.08955007
000320 75 0f da bd 71 6b f0 be ab 51 e6 be 43 52 bb 3d
       -0.106474794 -0.4695697 -0.44984183 0.091465496
000330 c4 ae ce bd 52 8c bd 3d f7 3f 63 be 3d d5 af 3d
       -0.10091928 0.092552796 -0.2219237 0.08585594
000340 21 cb d7 be 8f 74 25 3d 6f dd 7a 3d 0f 8d 57 3d
       -0.42147163 0.040394362 0.06124633 0.05262476
000350 1e 1f d4 3d 3b 34 81 be a7 1d 0c 3e 94 f7 9a bd
       0.10357498 -0.2523516 0.13683186 -0.07566753
000360 2d a6 ac be ba fe b4 be 7a ae 85 3d b1 1a 1f bd
       -0.33720532 -0.3535059 0.065274194 -0.038843814
000370 c0 28 4a be 5e ee 24 be 6b ab 05 3e de 1a b9 3d
       -0.19742107 -0.16106555 0.13053672 0.09038328
000380 f7 dc a1 be 34 c6 3b 3e b1 e0 1d 3f b2 3b f1 bc
       -0.31613895 0.18337327 0.61670977 -0.02944741
000390 cd 59 d6 bc 2f 32 5d be 11 5e 48 3e de f4 b1 3d
       -0.026165867 -0.21601175 0.19567133 0.08689283
0003a0 d7 40 ff 3a de 00 06 bf 70 ac 32 bf 80 ff 10 bd
       0.001947428 -0.52345073 -0.6979437 -0.035399914
0003b0 40 ee 82 be f9 86 86 be 59 f2 a2 bd 8d 8a 03 3f
       -0.25572395 -0.2627485 -0.079563804 0.51383287
0003c0 e6 1a 20 bf b6 cf d3 bc da 92 12 bd 8a 2f d4 3e
       -0.62541044 -0.02585588 -0.03578458 0.4144252
0003d0 35 a4 0a be 63 9d c9 be dd 08 05 3e 5d 81 13 3d
       -0.13539203 -0.3937789 0.12991662 0.036012042
0003e0 82 7b 8d be 0b 49 36 bf e4 9c cf 3d f8 91 01 3e
       -0.2763329 -0.71205205 0.101373464 0.12653339
0003f0 01 87 18 be ba 3c a4 bd 63 35 71 3e 99 ed 1a 3d
       -0.1489525 -0.08019395 0.23555522 0.037824247

fc_layer.4.bias f4 [8]
000000 1b ff 16 c0 80 8e 05 bf 24 51 ea be cb 15 35 3e
       -2.3593204 -0.5217056 -0.4576503 0.17684095
000010 ca 2f 17 3f da 58 bc 3d ec f2 ba be 46 dd 2f bf
       0.59057295 0.091966346 -0.3651346 -0.6869701

exp_avg f4 [16, 1, 3, 3]
000000 e0 d7 7a bc 79 bd ee 3b 52 f3 a1 ba b1 e1 ed bb
       -0.015310258 0.0072857705 -0.001235584 -0.0072595705
000010 b0 f1 44 3c 6c 29 c4 3b 81 63 53 bc 04 5a 06 3c
       0.012020513 0.005986383 -0.012902142 0.008200172
000020 a7 4d 46 3b e6 d4 52 bb e3 15 08 3b d8 30 eb 3b
       0.0030258687 -0.0032170354 0.0020764999 0.0071774535
000030 e5 05 11 3c e2 e7 14 3c 4f ee 27 3c 49 0a 20 3c
       0.008851503 0.009088488 0.010249688 0.009768077
000040 46 ac 22 3c 53 cb 6f 3c e7 e6 a7 bc fd fe 3c bc
       0.0099287685 0.014635879 -0.020495845 -0.011535403
000050 ef 96 a6 bc d6 82 76 bc ca 64 f8 bb 8c 02 84 bc
       -0.020335643 -0.015045842 -0.0075803744 -0.016114496
000060 86 16 41 bc e5 32 9a ba d8 59 27 bc e9 34 e3 bc
       -0.011785155 -0.0011764435 -0.0102142915 -0.02773519
000070 61 b7 9c bb d4 11 ac bc 9f 4e 39 bc 1d 85 7e 3b
       -0.0047826027 -0.021004595 -0.011310249 0.0038836666
000080 9e f7 51 bc 00 0f aa bc 26 95 5f bb 1c 10 94 bc
       -0.012815384 -0.020759106 -0.0034116 -0.018074088
000090 c9 63 21 3d 20 b9 6e 3c b7 89 fd 3c 6c 9d 24 3d
       0.039401803 0.014570504 0.030949457 0.04018919
0000a0 4a 7d 4b 3c 1e e4 d0 3c 46 12 fe 3c 48 cb 62 bb
       0.012420008 0.0254994 0.031014573 -0.0034606028
0000b0 53 d7 1c 3c 25 3b 25 bc 8c f4 8e bc 9b e8 5f bc
       0.009572822 -0.010084902 -0.017450593 -0.013666297
0000c0 38 e7 0f bc 13 df 90 bc cf 7a 50 bc 16 0e 53 bc
       -0.008783154 -0.017684495 -0.012724592 -0.012881776
0000d0 c2 9d c1 bc dd dd af bc 0f c9 5b 3a 5a d6 15 3c
       -0.023634795 -0.021468097 0.0008384147 0.009145344
0000e0 25 23 be 3c a4 65 19 3c ee ac 6b 3c 39 cc 01 3d
       0.023210118 0.009362612 0.014384491 0.031688903
0000f0 13 c4 03 3c fa 2c 2f 3c 82 e9 ca 3c cc 62 a7 3b
       0.008042353 0.010691876 0.024769548 0.005108213
000100 db d8 4f 3b 21 be de bb ac f4 2a bb 36 5d 24 bb
       0.003171495 -0.0067975675 -0.0026085777 -0.0025079972
000110 94 a8 98 bc e8 ba 61 bc 86 f7 74 bc 04 a7 ce bc
       -0.018635072 -0.013777472 -0.014951592 -0.025226124
000120 5c bc 57 bb c8 72 13 bb e9 dd 10 3b 53 c7 6d bb
       -0.0032918667 -0.0022498835 0.0022104925 -0.0036282137
000130 e6 15 de bb d7 29 44 ba f2 7c 15 bb c9 d2 b1 bb
       -0.006777513 -0.0007483041 -0.002281007 -0.005426739
000140 07 e4 7e bb 9b fa 4e bc be 71 a5 bc f0 d0 bd bb
       -0.003889324 -0.012632991 -0.020195838 -0.0057927296
000150 e8 0b a3 bb cb a2 a0 bb 10 78 c6 3b ef 00 00 bb
       -0.0049757846 -0.004902219 0.006056793 -0.0019531806
000160 34 a9 38 bc d6 6e 0c bb 80 50 a0 3c a7 d0 ad 3c
       -0.01127081 -0.0021428368 0.019569635 0.021217657
000170 e3 83 7f 3c 69 79 a7 3c 3b ef d8 3c 89 4e 8a 3c
       0.015595409 0.020443635 0.026481261 0.016883152
000180 aa 2e 03 3c eb e5 2e 3c 08 3a a5 b8 ea a2 19 3c
       0.008006731 0.010674934 -7.878622e-05 0.009377221
000190 b7 fe 1c 3c 53 7a 2c 3c 18 86 50 bb ae 43 91 ba
       0.009582213 0.010527211 -0.0031818207 -0.0011082792
0001a0 2d 1a a6 3a e5 54 3a 3c 41 a3 5d 3c df 04 6e 3c
       0.0012672596 0.0113727795 0.013527692 0.014527529
0001b0 48 d4 10 3c 8e 57 2a 3c 79 a4 0c 3c 51 68 91 3c
       0.008839674 0.010396851 0.008584135 0.017749937
0001c0 fe 05 73 3c 30 fe 41 3c 02 c8 11 3c 75 d6 83 3b
       0.014832972 0.011840388 0.008897783 0.004023368
0001d0 c7 ac 4d 3a 69 6f 5c b9 72 63 04 3b d8 28 05 3b
       0.0007845875 -0.00021022338 0.0020200876 0.0020318534
0001e0 f3 03 fd bb e4 ca 90 b7 dd c2 19 b9 da 60 c3 bb
       -0.007721418 -1.7260616e-05 -0.00014663809 -0.0059624733
0001f0 c0 91 b0 bb 64 e5 9c 3a 27 06 35 3b 7e 0d 06 bc
       -0.0053884685 0.0011970219 0.0027622075 -0.008181928
000200 0a dd fa 3b 3f 48 be 3b 7f 3e 59 bb 83 1c cc 3c
       0.0076557444 0.0058069522 -0.0033148823 0.02491594
000210 f3 04 8e 3c c3 43 3c 3c db 7e fe 3c 1e 1d 73 3c
       0.017336344 0.011490765 0.031066349 0.014838485
000220 b3 af f6 3c b8 a6 1b 3c 53 57 3d 3c a2 cd e7 3c
       0.030113077 0.009500198 0.011556464 0.028296296
000230 ae f8 07 3c 54 01 1e 3c bb 46 9e 3c b5 a5 7e 3b
       0.008299036 0.009643871 0.019320836 0.0038856093

exp_avg_sq f4 [16, 1, 3, 3]
000000 ad 71 8e 3b 6c 06 56 3b b2 d6 77 3b fb 4e 5d 3b
       0.0043470473 0.0032657636 0.0037817177 0.0033769
000010 b8 eb 94 3b b2 45 97 3b c9 87 8b 3b 3e e6 87 3b
       0.0045447014 0.0046164626 0.00425813 0.00414732
000020 d8 b8 80 3b e5 e6 89 3b db 02 43 3b 5a 21 70 3b
       0.003928285 0.004208433 0.002975634 0.0036640973
000030 8e b2 46 3b f2 4f b1 3b 3c aa 98 3b 77 01 75 3b
       0.003031883 0.0054111416 0.0046589654 0.0037384906
000040 9d ce 8d 3b d5 94 83 3b 97 4f 5c 3b 89 e2 5e 3b
       0.0043276087 0.004015545 0.0033616775 0.0034009537
000050 70 4c 44 3b 8c 6f 44 3b e4 85 43 3b 4d aa 4a 3b
       0.0029952787 0.0029973714 0.0029834444 0.003092426
000060 51 bd 58 3b 36 81 66 3b 01 58 86 3b 16 bf be 3b
       0.0033071826 0.003517223 0.0040998464 0.005821119
000070 48 2e 63 3b 36 be 8c 3b 65 a8 6d 3b 66 18 aa 3b
       0.0034665037 0.004295136 0.00362637 0.005190897
000080 b0 cf 99 3b ec be 9e 3b f0 6b 9d 3b 53 67 92 3b
       0.0046939477 0.004844537 0.004804127 0.0044678836
000090 c4 2b d9 3b a4 b6 88 3b 7c 96 7d 3b 9c 3f b2 3b
       0.0066275317 0.004172163 0.0038694432 0.0054397117
0000a0 f8 2b bc 3b 0d 6b a2 3b 0b 70 b8 3b e5 92 de 3b
       0.005742546 0.004956609 0.005628591 0.0067924135
0000b0 2f 87 be 3b 9b d5 ab 3b df b8 42 3b 7c bd 7e 3b
       0.005814455 0.0052439696 0.0029712243 0.0038870266
0000c0 15 19 62 3b 95 63 6e 3b 05 13 53 3b 05 75 90 3b
       0.0034499813 0.0036375273 0.0032207381 0.004408481
0000d0 f1 ed 81 3b ae 25 7c 3b 70 28 38 3b a2 22 27 3b
       0.0039651324 0.0038474607 0.0028100275 0.002550282
0000e0 c6 8e 2b 3b 8e 57 4e 3b 74 61 2b 3b bd 7b 68 3b
       0.002617763 0.0031485292 0.0026150616 0.0035474144
0000f0 ad a1 52 3b 39 0b 65 3b 0d e9 6b 3b e0 37 47 3c
       0.0032139823 0.0034949316 0.0035997063 0.012159318
000100 af 89 0d 3c 19 bc 02 3c 10 f3 20 3c 86 7d 28 3c
       0.008638783 0.007979416 0.009823576 0.010283833
000110 e1 47 1d 3c 59 78 22 3c 00 c4 26 3c 72 92 3a 3c
       0.009599657 0.009916388 0.010178566 0.011387454
000120 3f 64 b7 3b 1f 8f 90 3b 22 3d 8a 3b 36 a4 94 3b
       0.005596667 0.0044115926 0.0042187134 0.004536177
000130 b4 31 bf 3b f2 b8 bd 3b 03 4d 9e 3b e5 31 ba 3b
       0.0058347825 0.0057898695 0.004830958 0.0056822174
000140 87 30 b5 3b 01 66 35 3b 54 68 53 3b 06 5e 5a 3b
       0.0055294666 0.0027679207 0.003225823 0.0033320202
000150 5e c8 48 3b 05 6d 72 3b 21 5f 70 3b 09 b2 4f 3b
       0.0030637006 0.003699125 0.0036677795 0.003169181
000160 d8 cf 65 3b 07 cc 63 3b 5d 57 96 3b e9 a1 5f 3b
       0.0035066511 0.003475906 0.0045880512 0.0034123606
000170 3f a8 3f 3b a4 81 74 3b f0 1c 7f 3b 08 9a 75 3b
       0.002924457 0.0037308717 0.003892716 0.0037475843
000180 0d 86 8e 3b 7b 8c 8d 3b b1 a2 93 3b 8c 61 47 3b
       0.004349476 0.004319725 0.0045054783 0.0030423133
000190 bf 5c 2d 3b 65 02 20 3b 4a a9 3e 3b b1 b7 59 3b
       0.0026452986 0.002441549 0.0029092603 0.003322106
0001a0 53 68 37 3b bc c4 4f 3b 0c c6 7c 3b dc 89 42 3b
       0.0027985766 0.0031702956 0.0038570194 0.0029684221
0001b0 50 cf b4 3b 09 05 5d 3b 0d 2a 3e 3b ad aa 8f 3b
       0.0055178776 0.0033724925 0.0029016763 0.00438436
0001c0 e0 74 a0 3b 9a e7 8b 3b 1b 18 a3 3b 8d 80 a7 3b
       0.004896745 0.0042695524 0.004977239 0.00511176
0001d0 5f 50 95 3b a1 58 33 3b 5c 48 19 3b ff ab cf 3a
       0.0045567 0.002736606 0.0023389077 0.0015844106
0001e0 c7 14 ff 3a f8 07 12 3b 93 5a ac 3a 80 6a 08 3b
       0.0019461148 0.0022282582 0.0013149552 0.0020815432
0001f0 71 95 0c 3b 80 75 c4 3a ad c3 29 3b 1f f9 91 3b
       0.0021451379 0.0014988631 0.0025903985 0.0044547464
000200 15 04 5e 3b d8 ab 68 3b d7 d6 96 3b ee 07 3e 3b
       0.0033876945 0.0035502817 0.0046032476 0.0028996426
000210 dc 50 67 3b a2 31 83 3b 4a 97 74 3b 8d 6a a7 3b
       0.0035295999 0.0040037194 0.003732162 0.0051091374
000220 10 cc 97 3b 24 2f cc 3b 12 fa 89 3b 42 4d 8a 3b
       0.0046324804 0.0062312055 0.004210719 0.0042206356
000230 73 62 9c 3b 4c 43 b8 3b 6f 89 a8 3b ef ac c6 3b
       0.0047724782 0.005623257 0.0051433365 0.0060630958

exp_avg f4 [16]
000000 c8 14 1b bc fb 8f 4b 3b 5e f1 51 bb 30 82 99 bc
       -0.009465404 0.003106116 -0.0032034735 -0.018738836
000010 7d 48 06 3c 2c f5 ed bc 30 9b 34 bc b8 96 d8 bc
       0.0081959935 -0.029047571 -0.011023328 -0.026439056
000020 4f 0d 03 bb c8 36 91 bc 97 e5 20 3d 8a 14 74 3c
       -0.0019996946 -0.017726317 0.039281454 0.014897475
000030 52 03 60 3c cd 55 ce 3b 3e ae b1 3c fe 50 f9 3c
       0.013672667 0.0062968493 0.02168953 0.030434128

exp_avg_sq f4 [16]
000000 29 52 24 3c 61 b2 10 3c 30 c1 a3 3b d6 b4 16 3c
       0.010029354 0.008831591 0.004997395 0.009198388
000010 8e 06 78 3c 0f 63 17 3c d2 b4 a5 3b 72 8e d9 3c
       0.0151382815 0.009239926 0.005056956 0.026557181
000020 12 e4 48 3c f1 45 da 3b ba 01 31 3c 04 76 c4 3b
       0.012261407 0.0066611697 0.010803634 0.005995514
000030 54 e3 51 3c a9 42 00 3b 80 a8 de 3b 05 8b 3b 3c
       0.012810547 0.0019570983 0.006794989 0.011446719
